Part-04/data.pth (torch, 4991 bytes, 6 tensors)

l1.weight f4 [8, 54]
00000000: 0dec 93be d940 ea3e 279e dcbe 3729 833e
00000010: aa5e 023e 1dc3 2ebf 13d7 aabd 7e9d 9cbe
00000020: feb2 f2be d8ea c5be 111c 093f 01ba bc3e
00000030: f27f 863d c25d 293e ce44 a33e 177e e83d
00000040: b63e e03e 7ac5 2ebf 94bb 393c 65e5 363f
00000050: 2fd0 77be 0f8c 3c3f 6f37 343f 7d51 f03e
00000060: 4df8 02bb 4271 c23e 47e1 e3bc 1135 b33e
00000070: d24b 9cbe 43fd c63e 8c88 bfbe cf16 893e
00000080: 0c75 39be c46f abbe 1f48 fb3e a03c 733e
00000090: 92e5 9ebd c0e4 b4be b028 19be 2718 613d
000000a0: c2d2 a6be d5c3 833d ff3c 863e fa19 b13e
000000b0: c310 95bd 0eab b63e 992e 2fbf e17a 1bbe
000000c0: c017 223e a9ef 89bb 8185 903d d344 253e
000000d0: 1139 72bc 68b0 8e3c e6fb 263f 7dc4 0f3f
000000e0: 4cab 0ebf 759c 143e 9995 fbbd 7792 2cbe
000000f0: c765 87be 3189 b2be 40f0 ccbe 67d4 c6be
00000100: 6f0b 3a3e 3da0 213f b6a2 d03d c543 223f
00000110: 4f1b 903e ab79 aa3e 8310 c83c 6a44 97bd
00000120: fe33 703e 201c e4bd 62b6 093f 45b1 33bd
00000130: 58e7 0ebd 88a8 893b 0e80 a63e 1279 3fbd
00000140: 967b 403e 6fec 033f 8d6e 1a3e 1d86 f03e
00000150: 7bfc d8bd 6ff8 183f 826b 833e 047d b5be
00000160: 9bf8 1a3f 140b ed3e d348 903e ecdc aebe
00000170: 95ef 8bbe a6e4 10be 3e37 ffbc efd9 823e
00000180: 08b6 f53e fcfa 8d3e d131 10be 4793 ce3e
00000190: fbd9 873f e6d7 da3e 3550 0a3e 0014 173e
000001a0: fd29 0e3f 6af9 3e3e 9684 89be aa0a 893e
000001b0: d690 183f c548 c43e 6981 a1be d407 8ebe
000001c0: 83dd c8be 856e 5b3f 8eac 01be 2b31 f9be
000001d0: 4f9b 12be 4a13 93be 3fdf 48be 01d3 0e3f
000001e0: 31a5 18be 6202 0d3f 3351 523e 096e c23e
000001f0: 5b60 39be 0a60 2c3f e836 5a3e 1a69 a0be
00000200: dac6 f93e 44a7 b0be 1218 bcbe 299f 68bd
00000210: 718f 11bd 5fc3 edbd ec37 453e f4ed 12be
00000220: 3703 2f3e 7f5e f0bd 98fd cc3e 0f82 2d3f
00000230: d40e b83e 6132 8fbe c4dd 573d 356b b13e
00000240: 16f4 c43d 46d1 6abe a571 96bd 074b 3cbe
00000250: a8bb 123f 108c c03d 60cb 1b3f 0c15 123e
00000260: 91a9 6f3e 8853 c93c 8d68 663f 4d63 c93e
00000270: 2b76 44bd 78ff 1c3e 7a3d 723e 8893 313e
00000280: 08af cbbd 2f19 7d3e 3c64 2fbe cc1a cf3e
00000290: c1a9 f23e 775d 903e cf1d 1b3f 386c 23bf
000002a0: 2eae 20bd e497 cd3e 0044 463e 1571 7e3e
000002b0: 7910 c53e e208 08be 2907 303f 75b4 00be
000002c0: 8f63 433e 756f 92bd d693 103f a661 23bf
000002d0: 6d51 2a3f 461e 2d3f ae35 7dbe 0cdf 2f3f
000002e0: e9d7 253f ad07 933e be1e 50be bafb dd3e
000002f0: d5ec 153f aeb8 7e3e 35fd 9c3e 5805 e3bc
00000300: 22e2 09bf 8424 b9bd 5388 dd3d 4781 9a3e
00000310: 8673 e03e 4f26 ffbd c4f2 cf3e a310 da3e
00000320: 3f26 09be a1ac 08be b841 cebe 6212 403f
00000330: 62cc e0bd b997 813e 98fb a63e 814b 013f
00000340: b9e3 2dbf d317 d4bd c765 e93e 8633 4a3f
00000350: 855e 9a3d 6f7b 383f e716 05be 9491 9b3e
00000360: abed a3be f3c1 8cbe a6d6 fc3e e6e8 4d3e
00000370: b7bf 9a3e 71a7 3e3f 96ad 2a3f c55e 2d3f
00000380: 9a9a 043e 313b 1a3f c601 fd3e b2b0 77be
00000390: 9c5e 5b3d 267e 91be b1c1 16be fad4 b8bd
000003a0: a041 bf3e 59b8 2d3f 6e9c 993e 7d1d e63e
000003b0: 2c48 b3be ab62 193f c873 a73e 947b 773e
000003c0: 8f4b 223f 8b52 c43e bf11 2d3d e286 99be
000003d0: c552 3fbe 6bea 1ebe a605 353f 04eb 99be
000003e0: fbd5 06be c0f0 fc3e 3dbb 23be 5182 78be
000003f0: 73d3 a6bd 4b84 9d3d 84a3 2f3f 8102 4b3f
-0.2889103 0.457526 -0.4308941 0.25617382 0.12731424 -0.6826647 -0.083418034 -0.30588907
-0.47402185 -0.38655734 0.5355845 0.3686066 0.065673724 0.16539672 0.3188843 0.11352175
0.43797845 -0.68270075 0.011336226 0.7144378 -0.2420051 0.7365121 0.70397085 0.4693717
-0.0019984425 0.37977034 -0.027817382 0.35001424 -0.30526596 0.38865098 -0.37408864 0.26775214
-0.18111056 -0.33483708 0.49078462 0.23753595 -0.07758631 -0.35330772 -0.14956927 0.054954674
-0.3258267 0.06433836 0.2621841 0.3459013 -0.07278588 0.3567738 -0.6843048 -0.15183593
0.15829372 -0.004209478 0.07056714 0.16139536 -0.0147841135 0.017418101 0.65228117 0.5615919
-0.5573013 0.14512809 -0.12284393 -0.16852747 -0.26444837 -0.34870294 -0.40027046 -0.38833925
0.18168424 0.6313513 0.10187285 0.6338466 0.28145835 0.3329595 0.024421936 -0.07386096
0.23457333 -0.11138177 0.5379392 -0.04387023 -0.034888595 0.0042009987 0.32519573 -0.04674632
0.18797144 0.51532644 0.15081234 0.4697732 -0.10595032 0.5975408 0.2566796 -0.35446942
0.6053559 0.46297514 0.2818056 -0.34152925 -0.27331224 -0.14149722 -0.031154271 0.25556895
0.4799044 0.27730548 -0.14081503 0.4034674 1.0613397 0.42742842 0.13507159 0.14753723
0.5553282 0.18649831 -0.26858968 0.2676595 0.59596 0.3833677 -0.31544045 -0.27740347
-0.392315 0.85715514 -0.1266348 -0.48670325 -0.14317058 -0.28725654 -0.19616412 0.55790716
-0.14906766 0.5508176 0.20538788 0.37974575 -0.18103163 0.67334044 0.21310008 -0.31330186
0.48784524 -0.34502614 -0.36737114 -0.056792412 -0.035537187 -0.1160953 0.19259614 -0.14348584
0.1709107 -0.11736774 0.40037227 0.6777658 0.35948813 -0.27968124 0.052701727 0.34652105
0.09616868 -0.22931394 -0.07345895 -0.18387996 0.5731759 0.09401715 0.608572 0.14265841
0.23404528 0.024575964 0.9000328 0.39333573 -0.047964256 0.15331829 0.23656264 0.17341435
-0.09945494 0.24716638 -0.1712808 0.40450132 0.47395137 0.28196308 0.6059236 -0.63837004
-0.03922861 0.40154946 0.19361877 0.24847825 0.3848913 -0.13284639 0.68760926 -0.12568839
0.19080947 -0.07150165 0.5647558 -0.63820875 0.66530496 0.6762432 -0.24727508 0.6869972
0.6478258 0.28716794 -0.20324227 0.43356115 0.585645 0.24875137 0.30661932 -0.027712509
-0.53860676 -0.09040168 0.108170174 0.30176756 0.43838137 -0.12458479 0.40614903 0.42590818
-0.13393496 -0.13347103 -0.40284514 0.7502805 -0.10976483 0.25311068 0.32613826 0.50505835
-0.679256 -0.103561066 0.45585462 0.7898487 0.075375594 0.72063345 -0.12997018 0.30384505
-0.32017264 -0.27491722 0.49382514 0.20108375 0.30224392 0.74474245 0.6667112 0.6772273
0.12949601 0.6024657 0.49415416 -0.24188498 0.053557023 -0.28416556 -0.14722325 -0.09024997
0.37354755 0.6785942 0.3000216 0.44944373 -0.35016 0.5991618 0.32705522 0.24168235
0.63396543 0.38344225 0.042253252 -0.2998572 -0.18683918 -0.15519111 0.70711744 -0.30062115
-0.13167565 0.49402428 -0.15989394 -0.24268462 -0.081457995 0.076912485 0.6860888 0.79300696

l1.bias f4 [8]
00000000: ccc2 2e3f 1d99 183f 9456 043f 1472 233f
00000010: 2cc1 663f 90ed 613f 59ac 423f 9ce4 473f
0.68265986 0.5960863 0.5169461 0.63845944 0.90138507 0.88253117 0.7604423 0.78083205

l2.weight f4 [8, 8]
00000000: 06ed 71bf 368a 803c a207 ae3e c5db 243f
00000010: a2bb 81be ea93 d5be b81e 923f ce32 0f3f
00000020: e8b9 77be 60ba bc3d 3953 99bd 81d4 66be
00000030: cd6b 2ebe a24c 523e 0ad9 db3d 64a6 52be
00000040: 5dbb 6d3f 1245 0c3f b694 523e 5470 4a3f
00000050: 6f4a 64be 38d9 023f 69ed 1cbf fe81 2d3f
00000060: 5db7 ac3f 6c28 843f 2e81 293c 2ca0 7c3f
00000070: e56b d1bd d7d2 71bf dc24 b83e 8ab2 933e
00000080: 10c4 933e 9dad 5bbf e479 d2be b86c 043f
00000090: 50b9 c93f 759b c03f f6a7 813f a876 493e
000000a0: 2558 bdbe f231 833d da41 3e3e 1fc2 c3bd
000000b0: 9b99 4b3e e736 b5be 2f2b 29be 8d9f 87be
000000c0: 27cd 95bf 07a3 983f 71a2 c43f 4827 64bf
000000d0: 50ed 6bbd c03d 923e 2da5 963e 3a6a b33f
000000e0: 8003 723d b02b 7cbe 67cc 4bbe c0aa 013c
000000f0: 685f a13d 0820 c3bd 4804 06bd 369d 2f3e
-0.94502294 0.015690904 0.33990198 0.6439784 -0.25338465 -0.41714412 1.1415625 0.55936897
-0.24192011 0.09215236 -0.074865766 -0.22542001 -0.1703331 0.20537046 0.10734756 -0.20571285
0.9286402 0.5479289 0.20564541 0.7907765 -0.22294019 0.511127 -0.6129976 0.6777648
1.3493458 1.0324836 0.01034574 0.986819 -0.102256574 -0.9446234 0.3596562 0.28847152
0.2886052 -0.8581179 -0.4110862 0.5172839 1.5759678 1.5047442 1.0129383 0.1967417
-0.3698131 0.06406011 0.18579808 -0.0955851 0.19882815 -0.3539345 -0.1652038 -0.26488915
-1.1703233 1.1924752 1.5362073 -0.8912244 -0.057599366 0.28562737 0.29422894 1.4016793
0.05908537 -0.2462604 -0.19902192 0.007914245 0.078795254 -0.09527594 -0.032718927 0.17149815

l2.bias f4 [8]
00000000: bbb1 3cbc f26e 35be 54db bcbe e933 883e
00000010: 3af5 b93e 9282 9dbd a919 a33e 5fbc b1be
-0.011516984 -0.17718104 -0.36886084 0.26602104 0.36319906 -0.0769092 0.31855515 -0.34714028

l3.weight f4 [7, 8]
00000000: bbf3 cabf aa89 af3c 24c2 2a3f d34d 4bbf
00000010: 6678 35bf ebbd e03d 3dff dd3e 06d8 2abe
00000020: f9cb 91bf 29cd 4bbe 4b8a 573f 1827 5d3f
00000030: e810 bfbf cc26 28be 7bf7 80bf 654f 44be
00000040: ab23 3a3c a308 533e 2d88 46bf 4e6f c3bf
00000050: a4ae 793e 6d74 883b 4aaf e83e 83ce 99be
00000060: edff b0bf d6a4 b3be 24f1 2d3f 3a32 a63d
00000070: 8967 bd3e 0ac6 babd 1c2d bdbf a2f4 693e
00000080: 8344 393f 1fbd 8fbe 4e78 babe a794 873e
00000090: 2300 04bf 0738 84bd 674a 00bf 00fb 2a3c
000000a0: 8447 323f 6796 f7bd 2f61 15c0 0970 60bf
000000b0: 9ad7 5c3f 39b0 3fbe fa36 b9bf e715 923e
000000c0: 7e50 973e cf68 8c3e 5223 1ebf 1d87 523d
000000d0: 7180 d4bf 9396 8ebe c7cf 343f a12c 0abe
-1.5855631 0.021427948 0.66702485 -0.79415625 -0.7088684 0.10973724 0.43358794 -0.16683969
-1.1390373 -0.19902481 0.84195393 0.8638778 -1.4927034 -0.1642105 -1.0075525 -0.19170912
0.011361043 0.20608763 -0.7755154 -1.5268342 0.24383026 0.0041642697 0.45446235 -0.30040368
-1.3828102 -0.35086697 0.67946076 0.08115049 0.36993054 -0.09119804 -1.4779391 0.22847226
0.72370166 -0.28073975 -0.3641991 0.264806 -0.5156271 -0.06455999 -0.5011353 0.01043582
0.69640374 -0.12089234 -2.3340566 -0.8767095 0.8626648 -0.18719567 -1.4469903 0.28532335
0.29553598 0.27423713 -0.61772645 0.051398385 -1.6601697 -0.27849254 0.70629543 -0.13493587

l3.bias f4 [7]
00000000: 588f 13be 4487 4c3e bd5f 91bd 67a3 313d
00000010: f6cb 97be 2ed4 ba3e 2aad 003e
-0.1441015 0.19973475 -0.07098339 0.043368723 -0.29647797 0.36490005 0.12566057
